data.pth (torch, 6314 bytes, 6 tensors)

l1.weight f4 [8, 70]
00000000: 86da 4cbe 6010 4dbe 3d4b a43e 76ef 4b3e
00000010: 9078 773f 9e34 a0be 1e5a 8abd 2dba 0bbf
00000020: cfb8 163e 1561 863e 9c1d 1b3e e869 043f
00000030: 3611 063f dde4 983e 2197 823e 3c58 ebbd
00000040: 50e0 d4be edad 243f 1f50 273f c9da 33bd
00000050: c4c0 b23e 4a7f 3bbe 9966 5dbe d36f 84be
00000060: f2b5 0bbf ac1c ad3e 22c4 99be 7cd9 34be
00000070: 0acc cebe 70ad bbbe 7855 e0be 2c5b c2bc
00000080: f706 54be 1c13 e23e 0f73 9dbe 90a6 e53e
00000090: c12c 95be 8dd6 62be 1a7b 7a3f 012d aebd
000000a0: 4c91 dabd 9b0e 983e e8a3 763d f970 80be
000000b0: 2ab7 b13e c0b2 1d3e b1f2 8c3e 496f a13e
000000c0: 2427 c53e 67bb c73e 82c1 113f df98 723c
000000d0: ecc1 ccbe 89b4 143f 7697 3fbe d3b4 e23e
000000e0: 45a0 fa3e 8461 6cbc 77a9 763e 85d7 543e
000000f0: 8201 093c f013 13bf e4a0 10be 678b 283e
00000100: 9c82 ae3e 17f4 3f3f dff6 95be d7a9 053f
00000110: d677 1d3f ca25 9b3d 2f49 91be 9b96 a7bd
00000120: 0b76 7cbe 19c8 90be 7ead df3e 677b 0a3f
00000130: b4b3 a13e 4360 9b3e 1a0a e9be 0d9b debe
00000140: a633 06bf 863f 0e3f 48b0 383f 1aef e9be
00000150: 61cc 6fbd 69ea f63e 8b0a dc3e 1110 51bf
00000160: e217 d2bd 3830 553e 8753 b3be e80b c1bd
00000170: d5be ca3e 3bf3 103f dee6 013e 8c2a 18bd
00000180: 0331 143f d777 1abe 8b9c 3a3f 245a 303f
00000190: eecf 183f 270e 143e 4fc0 0e3f 3833 6cbe
000001a0: 81be a7bd a94d c1be ab27 2dbb 9154 503e
000001b0: a5c4 023f 65e8 a33e baa9 443d 69b3 e4be
000001c0: 1365 1ebe e1c1 bc3e 2097 63be 60a7 1fbf
000001d0: 1e2f b6be c916 a4be 4621 95be c1e7 afbe
000001e0: c8d9 9bbe b894 90bd dca0 603e e678 003e
000001f0: 5842 8d3e 7e74 21be dcbd 4cbe 93bc 913d
00000200: a777 69be 6d35 263e cc50 57bd 320c 34bf
00000210: 6927 a0be de28 923e 55a3 d53c e946 84be
00000220: c722 333e eb2a e63d d618 9f3e a056 7b3c
00000230: 899c f13e d300 20be b58f 18be 93ea 3f3f
00000240: 5d5e 3f3e 34ab 33be 7cb5 e4be 0891 1f3f
00000250: d647 c03e c611 293f d31f 1e3f f882 00bf
00000260: 5ea6 23bf b703 093f 05bc 2dbd eef5 68be
00000270: 76ff fe3e 534a 8cbe 4a12 b53e 24ac e83e
00000280: c66f dfbd 3852 d7bd e915 ac3e ada4 16be
00000290: ce69 223f 9697 5b3d 0542 d4be 8ead d13e
000002a0: 8cc2 a6be 5f08 dfbe 00ea 203d 62f7 103f
000002b0: fbc3 24be d5b6 25bd 3ec7 b9be 088d 3f3e
000002c0: 91ef debe c9be bb3e 2623 403e 8c7a 213f
000002d0: 6de5 fe3e d0db 403f c7a6 72be d9a5 ee3e
000002e0: 9601 603e f6ea d13e b893 b13e 42b9 093f
000002f0: cce9 58be 48e4 22be fadb 4ebe 6e93 9abd
00000300: e391 bc3e 918c dabd a357 be3e 2137 dabd
00000310: dbd8 bcbd fc39 7abd 0aa6 9ebe 3c2c 1c3f
00000320: b612 1ebe 3a1d 523f 614a b43e cebf bbbd
00000330: c63b 3bbe 9105 cfbd b933 d43e 0319 d7bd
00000340: af9e c03d 8377 1b3e 9b88 8bbd 2868 2e3d
00000350: e3aa 343e b7f2 18be 5436 e53e d416 883e
00000360: f881 a73d bddd 503f d9f1 4ebd 0f7d a5bd
00000370: 4155 22bf 912a 10bf 7bee 75bf 28a7 243d
00000380: 09bf a23e da1d c83e 34a1 b3be 4474 5a3f
00000390: 23fd 0ebe b491 cdbe eabd 873e 9e9d dcbd
000003a0: 3f50 76be 2ab1 c63e d6eb 743f e9ad 7bbe
000003b0: 398a e93e f757 f1bd 28fe 053f b9c8 d73e
000003c0: 4ae1 c13e 379a 16be b25c 9e3e 7964 eebe
000003d0: f195 97bd c599 9cbe 9c47 adbc a990 1a3f
000003e0: 7b1d f73e b4c2 bdbe 34fe 243e df55 9fbe
000003f0: e380 a23d ef53 bcbd da6e 6bbe 7da2 2cbf
-0.20005235 -0.20025778 0.32088652 0.19915566 0.9666834 -0.31290144 -0.0675547 -0.54580957
0.14718936 0.26245943 0.15148014 0.517241 0.5237001 0.2986211 0.25505927 -0.11491439
-0.41577387 0.6432789 0.6535663 -0.04390982 0.34912694 -0.18310276 -0.21621169 -0.25866565
-0.545745 0.33810937 -0.3003245 -0.17661089 -0.40390044 -0.3665576 -0.43815207 -0.023725115
-0.20705782 0.44155204 -0.30751845 0.4485364 -0.29135707 -0.22152157 0.9784409 -0.085046776
-0.106722444 0.29698643 0.060214907 -0.2508619 0.34710056 0.15400219 0.2752891 0.31530216
0.38506424 0.39010164 0.56935894 0.014806955 -0.399917 0.58087975 -0.18710122 0.44278583
0.489504 -0.014427546 0.24088083 0.20785339 0.008362176 -0.574523 -0.14123875 0.16459428
0.34084022 0.74981827 -0.2928991 0.5221228 0.6151098 0.07575567 -0.28376147 -0.081830226
-0.24654405 -0.28277662 0.43687052 0.5409455 0.31582415 0.3034688 -0.4551552 -0.4347767
-0.5242256 0.5556568 0.72143984 -0.45690233 -0.05854452 0.48225716 0.42976794 -0.8166514
-0.102584615 0.20819175 -0.35024664 -0.09426099 0.39598718 0.5662114 0.12685725 -0.03714995
0.57887286 -0.15084778 0.72895116 0.68887544 0.59692276 0.14458524 0.5576219 -0.23066413
-0.081906326 -0.37754562 -0.002642135 0.2034476 0.51081306 0.3201324 0.048013426 -0.4466813
-0.15468244 0.36866668 -0.22225618 -0.6236477 -0.35582823 -0.32048634 -0.29126948 -0.34356502
-0.3043959 -0.07059616 0.21936363 0.12546119 0.2758968 -0.15767094 -0.199943 0.07116046
-0.2279955 0.16231318 -0.05256729 -0.7033111 -0.31280068 0.28546804 0.02607886 -0.2583535
0.17493735 0.11238655 0.31073636 0.015340477 0.4718974 -0.15625314 -0.1489857 0.74967307
0.1868834 -0.17545778 -0.44669712 0.62330675 0.37554806 0.66042745 0.6176731 -0.5019984
-0.6392573 0.53521293 -0.042415638 -0.22750065 0.49804276 -0.27400455 0.35365516 0.45443833
-0.10909991 -0.10513729 0.33610466 -0.14711256 0.63442695 0.05361136 -0.4145662 0.40952724
-0.32570302 -0.43561074 0.03928566 0.56627476 -0.16090386 -0.040457565 -0.36284822 0.18706143
-0.4354215 0.36668995 0.18763408 0.63077617 0.49784413 0.7533541 -0.23696433 0.46610907
0.21875605 0.40999573 0.34683013 0.53798306 -0.21182936 -0.15907395 -0.20201102 -0.07547651
0.36830053 -0.10671342 0.37176237 -0.10655046 -0.092210494 -0.061090454 -0.30986053 0.61004996
-0.15436825 0.82075846 0.35212997 -0.09167443 -0.1828452 -0.101084836 0.4144571 -0.105028175
0.094052665 0.15182309 -0.06813165 0.0425798 0.17643313 -0.14936338 0.44768012 0.26579916
0.081790864 0.81588346 -0.050523613 -0.08080494 -0.6341134 -0.5631495 -0.9606702 0.040198475
0.31786373 0.39085275 -0.35083926 0.8533366 -0.13963751 -0.40150225 0.2651208 -0.107722506
-0.24054049 0.3880704 0.9567236 -0.2457806 0.45613268 -0.11784356 0.52340937 0.42145327
0.37867194 -0.14707266 0.30930096 -0.4656103 -0.07401646 -0.30586067 -0.02115231 0.60376984
0.4826468 -0.3706261 0.16112596 -0.31120202 0.079347394 -0.091956966 -0.22991505 -0.6743544

l1.bias f4 [8]
00000000: 77b7 0b3f 1c12 513f 72a4 233f c182 883f
00000010: c3a6 233f 7991 083f 559e 7a3f 8043 213f
0.5457682 0.8166826 0.639228 1.0664903 0.63926333 0.53346974 0.97897846 0.6299362

l2.weight f4 [8, 8]
00000000: 61c4 503f bb25 a73f 4224 67bf e7cd 2c3e
00000010: 0d05 4c3f 4854 5c3f 7015 57bf e1c9 8e3f
00000020: 4ed0 b43f 286c 383e c19d 7a3f bbb4 6fbf
00000030: fd6e 0bbf 57d5 843f 5878 f13e 5566 6c3f
00000040: 0dcf 52bf a3e1 403f f318 803f 628c 1d3f
00000050: af0e 513e f633 4cbf 9d3f 373f af13 853d
00000060: a9bb a2be ee5a 343f d3d4 113f 15d1 1d3f
00000070: 74aa 90bf 9505 b9bd 8538 a13f fc1f 003f
00000080: 86a4 54bf d760 9d3f df61 853f 2e05 b73e
00000090: 0f2a d83f 14f8 96be 5376 1abe 843c 3d3f
000000a0: 0c12 44bc 0fcd 2a3d 7b0d 733f ceea 8ebf
000000b0: e4ad 5b3f 4d59 503f 7e66 293e f900 693f
000000c0: 221e 013e 060d 8f3f f0d6 00bf eca0 a73f
000000d0: 77bc 50bd 0c86 7abf f0e3 7e3f 67f1 703f
000000e0: 8050 4f3f 28a5 2bbf f100 873f b50c bc3f
000000f0: 6592 0abd 99ed a93f 178d ba3f 4e2d 9bbf
0.8154965 1.305839 -0.902897 0.1687542 0.79695207 0.86066103 -0.84017086 1.1155359
1.412607 0.18010008 0.97896963 -0.9363515 -0.5446623 1.0377606 0.47162127 0.92343646
-0.82347184 0.75344294 1.0007614 0.6154233 0.20415758 -0.79766786 0.7158144 0.06497895
-0.31783798 0.7045125 0.5696537 0.6164716 -1.1302018 -0.09034268 1.2595373 0.50048804
-0.8306354 1.2295178 1.0420493 0.3574614 1.6887835 -0.29486144 -0.150842 0.73920465
-0.011967193 0.041699465 0.94942445 -1.1165407 0.8581221 0.8138626 0.16543004 0.9101711
0.12609151 1.117585 -0.5032797 1.3095984 -0.050960984 -0.9786079 0.99566555 0.9411835
0.8098221 -0.67048883 1.0547162 1.4691378 -0.03383102 1.3275634 1.4574307 -1.2123201

l2.bias f4 [8]
00000000: 1090 523e 9f8c 50be 5c4b 813c c85f f2bd
00000010: 4610 c13e ea3d c2be 0290 bfbd 2e8a 853f
0.20562768 -0.20366143 0.015783004 -0.11834675 0.37707728 -0.37937862 -0.09353639 1.0432794

l3.weight f4 [11, 8]
00000000: 178f 0bc0 67bb 2bbf 56ba 053d 716c 0e3e
00000010: f15a f3bf b460 93bf cd26 c53e 791c 1b3f
00000020: 9fd2 133f 2597 2d3e d971 81bf eeb1 01bf
00000030: c8f4 063e 8159 6c3e 4593 2c3e 6924 d5bf
00000040: 3e19 433d 77e3 cd3e 4a39 65be 766a 853e
00000050: 3f05 12bf fbd0 9bbf ffa8 98bd f552 18be
00000060: 4d3e 42bf 4db2 9c3e be42 773e 8500 ca3e
00000070: deff 4cbd 5b7c 1c3f 4bae cdbe f309 abbf
00000080: e738 173f 0429 dabf 7c79 febf 0119 2ebf
00000090: 8551 de3e 9459 e8be a961 aabf 7075 683e
000000a0: 77e9 e0bf 7c3f d0bf 6bed 1a3f 903a 2e3e
000000b0: 5d4b 713e 8fa5 c2bf 75ce 913e 47ac 073c
000000c0: d113 013f d0fa aebf 37f8 043f 3933 f0bd
000000d0: 0afa e03e 4755 afbf 04c6 f13e 9831 96bf
000000e0: e048 973e 3817 1f3f d7b6 82bf 4b32 89bf
000000f0: 71d9 a7bf 5fe1 fd3e 02c8 9bbf 552c 83be
00000100: d3c5 a1bf 16dc 093f cbb2 81bf cbee 13bd
00000110: e56e 9bbf eaf0 7a3e 0370 b2bf 0c40 ac3e
00000120: 9c47 ff3e e475 33bd acf7 d6bf 1d70 63bf
00000130: 6e4c babf 1ef1 e9bf 4bb2 bfbf 9c1a 503f
00000140: 69fb e8bf 635e 37bf ab14 a43e 61a3 50bf
00000150: 90db 1a3f 07e6 003e bbe5 b2bf cc92 853e
-2.1806085 -0.6708283 0.032648407 0.13908555 -1.9012128 -1.1513886 0.38506165 0.6059032
0.5774326 0.16952188 -1.0112869 -0.50662124 0.13179314 0.23081018 0.16853054 -1.6651736
0.047631495 0.40212604 -0.22385135 0.26057786 -0.57039255 -1.2173151 -0.074541084 -0.14875396
-0.75876313 0.30604783 0.24146554 0.3945352 -0.0500487 0.6112725 -0.40172037 -1.3362411
0.590712 -1.7043767 -1.9880824 -0.680069 0.4342157 -0.45380843 -1.3311054 0.22701049
-1.7571248 -1.6269374 0.6051852 0.17014527 0.23563905 -1.5206774 0.28477827 0.00828082
0.5042086 -1.3670292 0.51941246 -0.1172852 0.43940765 -1.36979 0.47221386 -1.1733885
0.29547787 0.62144804 -1.0212048 -1.0718473 -1.3113233 0.49586007 -1.2170413 -0.2561976
-1.2638496 0.5385145 -1.0132688 -0.036116403 -1.2143217 0.24505964 -1.3940433 0.33642614
0.4985932 -0.0438136 -1.6794333 -0.88842946 -1.4554574 -1.8276708 -1.4976286 0.812906
-1.8201724 -0.716284 0.32047018 -0.81499296 0.60491276 0.12587748 -1.3976358 0.2608856

l3.bias f4 [11]
00000000: 17f7 97be 59f5 febd a752 d9be 053d f3be
00000010: 409d cc3e 7cce 14bf a4c9 7db9 f848 b5be
00000020: 5aa1 2abe b82b 263e 6428 283f
-0.29680702 -0.1244914 -0.4244587 -0.47507492 0.39963722 -0.5812757 -0.00024203077 -0.35407233
-0.16663113 0.16227615 0.6568663
